…
time: null
patience: 10
batch: 1
imgsz: 800
save: true
save_period: -1
cache: false
device:
- 0
workers: 8
project: distill_train_m
name: test_distill
exist_ok: false
pretrained: true
optimizer: SGD
verbose: true
seed: 0
deterministic: true
single_cls: false
rect: false
cos_lr: false
close_mosaic: 10
resume: false
amp: true
fraction: 1.0
profile: false
freeze: 55
multi_scale: false
overlap_mask: true
mask_ratio: 4
dropout: 0.0
r_init: 9
r_target: 6
adalora: true
teacher: "DetectionModel_m(\n  (model): Sequential(\n    (0): Conv_adalora_sym_m(\n\
  \      (conv): Conv2d_adalora_sym_m(\n        (conv): Conv2d(3, 16, kernel_size=(3,\
  \ 3), stride=(2, 2), padding=(1, 1), bias=False)\n      )\n      (bn_rgb): BatchNorm2d(16,\
  \ eps=0.001, momentum=0.03, affine=True, track_running_stats=True)\n      (bn_ir):\
  \ BatchNorm2d(16, eps=0.001, momentum=0.03, affine=True, track_running_stats=True)\n\
  \      (act): SiLU(inplace=True)\n    )\n    (1): Conv_adalora_sym_m(\n      (conv):\
  \ Conv2d_adalora_sym_m(\n        (conv): Conv2d(16, 32, kernel_size=(3, 3), stride=(2,\
  \ 2), padding=(1, 1), bias=False)\n      )\n      (bn_rgb): BatchNorm2d(32, eps=0.001,\
  \ momentum=0.03, affine=True, track_running_stats=True)\n      (bn_ir): BatchNorm2d(32,\
  \ eps=0.001, momentum=0.03, affine=True, track_running_stats=True)\n      (act):\
  \ SiLU(inplace=True)\n    )\n    (2): C2f_adalora_sym_m(\n      (cv1): Conv_adalora_sym_m(\n\
  \        (conv): Conv2d_adalora_sym_m(\n          (conv): Conv2d(32, 32, kernel_size=(1,\
  \ 1), stride=(1, 1), bias=False)\n        )\n        (bn_rgb): BatchNorm2d(32, eps=0.001,\
  \ momentum=0.03, affine=True, track_running_stats=True)\n        (bn_ir): BatchNorm2d(32,\
  \ eps=0.001, momentum=0.03, affine=True, track_running_stats=True)\n        (act):\
  \ SiLU(inplace=True)\n      )\n      (cv2): Conv_adalora_sym_m(\n        (conv):\
  \ Conv2d_adalora_sym_m(\n          (conv): Conv2d(48, 32, kernel_size=(1, 1), stride=(1,\
  \ 1), bias=False)\n        )\n        (bn_rgb): BatchNorm2d(32, eps=0.001, momentum=0.03,\
  \ affine=True, track_running_stats=True)\n        (bn_ir): BatchNorm2d(32, eps=0.001,\
  \ momentum=0.03, affine=True, track_running_stats=True)\n        (act): SiLU(inplace=True)\n\
  \      )\n      (m): ModuleList(\n        (0): Bottleneck_adalora_sym_m(\n     \
  \     (cv1): Conv_adalora_sym_m(\n            (conv): Conv2d_adalora_sym_m(\n  \
  \            (conv): Conv2d(16, 16, kernel_size=(3, 3), stride=(1, 1), padding=(1,\
  \ 1), bias=False)\n            )\n            (bn_rgb): BatchNorm2d(16, eps=0.001,\
  \ momentum=0.03, affine=True, track_running_stats=True)\n            (bn_ir): BatchNorm2d(16,\
  \ eps=0.001, momentum=0.03, affine=True, track_running_stats=True)\n           \
  \ (act): SiLU(inplace=True)\n          )\n          (cv2): Conv_adalora_sym_m(\n\
  \            (conv): Conv2d_adalora_sym_m(\n              (conv): Conv2d(16, 16,\
  \ kernel_size=(3, 3), stride=(1, 1), padding=(1, 1), bias=False)\n            )\n\
  \            (bn_rgb): BatchNorm2d(16, eps=0.001, momentum=0.03, affine=True, track_running_stats=True)\n\
  \            (bn_ir): BatchNorm2d(16, eps=0.001, momentum=0.03, affine=True, track_running_stats=True)\n\
  \            (act): SiLU(inplace=True)\n          )\n        )\n      )\n    )\n\
  \    (3): Conv_adalora_sym_m(\n      (conv): Conv2d_adalora_sym_m(\n        (conv):\
  \ Conv2d(32, 64, kernel_size=(3, 3), stride=(2, 2), padding=(1, 1), bias=False)\n\
  \      )\n      (bn_rgb): BatchNorm2d(64, eps=0.001, momentum=0.03, affine=True,\
  \ track_running_stats=True)\n      (bn_ir): BatchNorm2d(64, eps=0.001, momentum=0.03,\
  \ affine=True, track_running_stats=True)\n      (act): SiLU(inplace=True)\n    )\n\
  \    (4): C2f_adalora_sym_m(\n      (cv1): Conv_adalora_sym_m(\n        (conv):\
  \ Conv2d_adalora_sym_m(\n          (conv): Conv2d(64, 64, kernel_size=(1, 1), stride=(1,\
  \ 1), bias=False)\n        )\n        (bn_rgb): BatchNorm2d(64, eps=0.001, momentum=0.03,\
  \ affine=True, track_running_stats=True)\n        (bn_ir): BatchNorm2d(64, eps=0.001,\
  \ momentum=0.03, affine=True, track_running_stats=True)\n        (act): SiLU(inplace=True)\n\
  \      )\n      (cv2): Conv_adalora_sym_m(\n        (conv): Conv2d_adalora_sym_m(\n\
  \          (conv): Conv2d(128, 64, kernel_size=(1, 1), stride=(1, 1), bias=False)\n\
  \        )\n        (bn_rgb): BatchNorm2d(64, eps=0.001, momentum=0.03, affine=True,\
  \ track_running_stats=True)\n        (bn_ir): BatchNorm2d(64, eps=0.001, momentum=0.03,\
  \ affine=True, track_running_stats=True)\n        (act): SiLU(inplace=True)\n  \
  \    )\n      (m): ModuleList(\n        (0-1): 2 x Bottleneck_adalora_sym_m(\n \
  \         (cv1): Conv_adalora_sym_m(\n            (conv): Conv2d_adalora_sym_m(\n\
  \              (conv): Conv2d(32, 32, kernel_size=(3, 3), stride=(1, 1), padding=(1,\
  \ 1), bias=False)\n            )\n            (bn_rgb): BatchNorm2d(32, eps=0.001,\
  \ momentum=0.03, affine=True, track_running_stats=True)\n            (bn_ir): BatchNorm2d(32,\
  \ eps=0.001, momentum=0.03, affine=True, track_running_stats=True)\n           \
  \ (act): SiLU(inplace=True)\n          )\n          (cv2): Conv_adalora_sym_m(\n\
  \            (conv): Conv2d_adalora_sym_m(\n              (conv): Conv2d(32, 32,\
  \ kernel_size=(3, 3), stride=(1, 1), padding=(1, 1), bias=False)\n            )\n\
  \            (bn_rgb): BatchNorm2d(32, eps=0.001, momentum=0.03, affine=True, track_running_stats=True)\n\
  \            (bn_ir): BatchNorm2d(32, eps=0.001, momentum=0.03, affine=True, track_running_stats=True)\n\
  \            (act): SiLU(inplace=True)\n          )\n        )\n      )\n    )\n\
  \    (5): Conv_adalora_sym_m(\n      (conv): Conv2d_adalora_sym_m(\n        (conv):\
  \ Conv2d(64, 128, kernel_size=(3, 3), stride=(2, 2), padding=(1, 1), bias=False)\n\
  \      )\n      (bn_rgb): BatchNorm2d(128, eps=0.001, momentum=0.03, affine=True,\
  \ track_running_stats=True)\n      (bn_ir): BatchNorm2d(128, eps=0.001, momentum=0.03,\
  \ affine=True, track_running_stats=True)\n      (act): SiLU(inplace=True)\n    )\n\
  \    (6): C2f_adalora_sym_m(\n      (cv1): Conv_adalora_sym_m(\n        (conv):\
  \ Conv2d_adalora_sym_m(\n          (conv): Conv2d(128, 128, kernel_size=(1, 1),\
  \ stride=(1, 1), bias=False)\n        )\n        (bn_rgb): BatchNorm2d(128, eps=0.001,\
  \ momentum=0.03, affine=True, track_running_stats=True)\n        (bn_ir): BatchNorm2d(128,\
  \ eps=0.001, momentum=0.03, affine=True, track_running_stats=True)\n        (act):\
  \ SiLU(inplace=True)\n      )\n      (cv2): Conv_adalora_sym_m(\n        (conv):\
  \ Conv2d_adalora_sym_m(\n          (conv): Conv2d(256, 128, kernel_size=(1, 1),\
  \ stride=(1, 1), bias=False)\n        )\n        (bn_rgb): BatchNorm2d(128, eps=0.001,\
  \ momentum=0.03, affine=True, track_running_stats=True)\n        (bn_ir): BatchNorm2d(128,\
  \ eps=0.001, momentum=0.03, affine=True, track_running_stats=True)\n        (act):\
  \ SiLU(inplace=True)\n      )\n      (m): ModuleList(\n        (0-1): 2 x Bottleneck_adalora_sym_m(\n\
  \          (cv1): Conv_adalora_sym_m(\n            (conv): Conv2d_adalora_sym_m(\n\
  \              (conv): Conv2d(64, 64, kernel_size=(3, 3), stride=(1, 1), padding=(1,\
  \ 1), bias=False)\n            )\n            (bn_rgb): BatchNorm2d(64, eps=0.001,\
  \ momentum=0.03, affine=True, track_running_stats=True)\n            (bn_ir): BatchNorm2d(64,\
  \ eps=0.001, momentum=0.03, affine=True, track_running_stats=True)\n           \
  \ (act): SiLU(inplace=True)\n          )\n          (cv2): Conv_adalora_sym_m(\n\
  \            (conv): Conv2d_adalora_sym_m(\n              (conv): Conv2d(64, 64,\
  \ kernel_size=(3, 3), stride=(1, 1), padding=(1, 1), bias=False)\n            )\n\
  \            (bn_rgb): BatchNorm2d(64, eps=0.001, momentum=0.03, affine=True, track_running_stats=True)\n\
  \            (bn_ir): BatchNorm2d(64, eps=0.001, momentum=0.03, affine=True, track_running_stats=True)\n\
  \            (act): SiLU(inplace=True)\n          )\n        )\n      )\n    )\n\
  \    (7): Conv_adalora_sym_m(\n      (conv): Conv2d_adalora_sym_m(\n        (conv):\
  \ Conv2d(128, 256, kernel_size=(3, 3), stride=(2, 2), padding=(1, 1), bias=False)\n\
  \      )\n      (bn_rgb): BatchNorm2d(256, eps=0.001, momentum=0.03, affine=True,\
  \ track_running_stats=True)\n      (bn_ir): BatchNorm2d(256, eps=0.001, momentum=0.03,\
  \ affine=True, track_running_stats=True)\n      (act): SiLU(inplace=True)\n    )\n\
  \    (8): C2f_adalora_sym_m(\n      (cv1): Conv_adalora_sym_m(\n        (conv):\
  \ Conv2d_adalora_sym_m(\n          (conv): Conv2d(256, 256, kernel_size=(1, 1),\
  \ stride=(1, 1), bias=False)\n        )\n        (bn_rgb): BatchNorm2d(256, eps=0.001,\
  \ momentum=0.03, affine=True, track_running_stats=True)\n        (bn_ir): BatchNorm2d(256,\
  \ eps=0.001, momentum=0.03, affine=True, track_running_stats=True)\n        (act):\
  \ SiLU(inplace=True)\n      )\n      (cv2): Conv_adalora_sym_m(\n        (conv):\
  \ Conv2d_adalora_sym_m(\n          (conv): Conv2d(384, 256, kernel_size=(1, 1),\
  \ stride=(1, 1), bias=False)\n        )\n        (bn_rgb): BatchNorm2d(256, eps=0.001,\
  \ momentum=0.03, affine=True, track_running_stats=True)\n        (bn_ir): BatchNorm2d(256,\
  \ eps=0.001, momentum=0.03, affine=True, track_running_stats=True)\n        (act):\
  \ SiLU(inplace=True)\n      )\n      (m): ModuleList(\n        (0): Bottleneck_adalora_sym_m(\n\
  \          (cv1): Conv_adalora_sym_m(\n            (conv): Conv2d_adalora_sym_m(\n\
  \              (conv): Conv2d(128, 128, kernel_size=(3, 3), stride=(1, 1), padding=(1,\
  \ 1), bias=False)\n            )\n            (bn_rgb): BatchNorm2d(128, eps=0.001,\
  \ momentum=0.03, affine=True, track_running_stats=True)\n            (bn_ir): BatchNorm2d(128,\
  \ eps=0.001, momentum=0.03, affine=True, track_running_stats=True)\n           \
  \ (act): SiLU(inplace=True)\n          )\n          (cv2): Conv_adalora_sym_m(\n\
  \            (conv): Conv2d_adalora_sym_m(\n              (conv): Conv2d(128, 128,\
  \ kernel_size=(3, 3), stride=(1, 1), padding=(1, 1), bias=False)\n            )\n\
  \            (bn_rgb): BatchNorm2d(128, eps=0.001, momentum=0.03, affine=True, track_running_stats=True)\n\
  \            (bn_ir): BatchNorm2d(128, eps=0.001, momentum=0.03, affine=True, track_running_stats=True)\n\
  \            (act): SiLU(inplace=True)\n          )\n        )\n      )\n    )\n\
  \    (9): SPPF_adalora_sym_m(\n      (cv1): Conv_adalora_sym_m(\n        (conv):\
  \ Conv2d_adalora_sym_m(\n          (conv): Conv2d(256, 128, kernel_size=(1, 1),\
  \ stride=(1, 1), bias=False)\n        )\n        (bn_rgb): BatchNorm2d(128, eps=0.001,\
  \ momentum=0.03, affine=True, track_running_stats=True)\n        (bn_ir): BatchNorm2d(128,\
  \ eps=0.001, momentum=0.03, affine=True, track_running_stats=True)\n        (act):\
  \ SiLU(inplace=True)\n      )\n      (cv2): Conv_adalora_sym_m(\n        (conv):\
  \ Conv2d_adalora_sym_m(\n          (conv): Conv2d(512, 256, kernel_size=(1, 1),\
  \ stride=(1, 1), bias=False)\n        )\n        (bn_rgb): BatchNorm2d(256, eps=0.001,\
  \ momentum=0.03, affine=True, track_running_stats=True)\n        (bn_ir): BatchNorm2d(256,\
  \ eps=0.001, momentum=0.03, affine=True, track_running_stats=True)\n        (act):\
  \ SiLU(inplace=True)\n      )\n      (m): MaxPool2d(kernel_size=5, stride=1, padding=2,\
  \ dilation=1, ceil_mode=False)\n    )\n    (10): Split()\n    (11): Split()\n  \
  \  (12): Split()\n    (13): Split()\n    (14): Split()\n    (15): Split()\n    (16):\
  \ Add()\n    (17): Add()\n    (18): Add()\n    (19): Upsample(scale_factor=2.0,\
  \ mode='nearest')\n    (20): Concat()\n    (21): C2f(\n      (cv1): Conv(\n    \
  \    (conv): Conv2d(384, 128, kernel_size=(1, 1), stride=(1, 1), bias=False)\n \
  \       (bn): BatchNorm2d(128, eps=0.001, momentum=0.03, affine=True, track_running_stats=True)\n\
  \        (act): SiLU(inplace=True)\n      )\n      (cv2): Conv(\n        (conv):\
  \ Conv2d(192, 128, kernel_size=(1, 1), stride=(1, 1), bias=False)\n        (bn):\
  \ BatchNorm2d(128, eps=0.001, momentum=0.03, affine=True, track_running_stats=True)\n\
  \        (act): SiLU(inplace=True)\n      )\n      (m): ModuleList(\n        (0):\
  \ Bottleneck(\n          (cv1): Conv(\n            (conv): Conv2d(64, 64, kernel_size=(3,\
  \ 3), stride=(1, 1), padding=(1, 1), bias=False)\n            (bn): BatchNorm2d(64,\
  \ eps=0.001, momentum=0.03, affine=True, track_running_stats=True)\n           \
  \ (act): SiLU(inplace=True)\n          )\n          (cv2): Conv(\n            (conv):\
  \ Conv2d(64, 64, kernel_size=(3, 3), stride=(1, 1), padding=(1, 1), bias=False)\n\
  \            (bn): BatchNorm2d(64, eps=0.001, momentum=0.03, affine=True, track_running_stats=True)\n\
  \            (act): SiLU(inplace=True)\n          )\n        )\n      )\n    )\n\
  \    (22): Upsample(scale_factor=2.0, mode='nearest')\n    (23): Concat()\n    (24):\
  \ C2f(\n      (cv1): Conv(\n        (conv): Conv2d(192, 64, kernel_size=(1, 1),\
  \ stride=(1, 1), bias=False)\n        (bn): BatchNorm2d(64, eps=0.001, momentum=0.03,\
  \ affine=True, track_running_stats=True)\n        (act): SiLU(inplace=True)\n  \
  \    )\n      (cv2): Conv(\n        (conv): Conv2d(96, 64, kernel_size=(1, 1), stride=(1,\
  \ 1), bias=False)\n        (bn): BatchNorm2d(64, eps=0.001, momentum=0.03, affine=True,\
  \ track_running_stats=True)\n        (act): SiLU(inplace=True)\n      )\n      (m):\
  \ ModuleList(\n        (0): Bottleneck(\n          (cv1): Conv(\n            (conv):\
  \ Conv2d(32, 32, kernel_size=(3, 3), stride=(1, 1), padding=(1, 1), bias=False)\n\
  \            (bn): BatchNorm2d(32, eps=0.001, momentum=0.03, affine=True, track_running_stats=True)\n\
  \            (act): SiLU(inplace=True)\n          )\n          (cv2): Conv(\n  \
  \          (conv): Conv2d(32, 32, kernel_size=(3, 3), stride=(1, 1), padding=(1,\
  \ 1), bias=False)\n            (bn): BatchNorm2d(32, eps=0.001, momentum=0.03, affine=True,\
  \ track_running_stats=True)\n            (act): SiLU(inplace=True)\n          )\n\
  \        )\n      )\n    )\n    (25): Conv(\n      (conv): Conv2d(64, 64, kernel_size=(3,\
  \ 3), stride=(2, 2), padding=(1, 1), bias=False)\n      (bn): BatchNorm2d(64, eps=0.001,\
  \ momentum=0.03, affine=True, track_running_stats=True)\n      (act): SiLU(inplace=True)\n\
  \    )\n    (26): Concat()\n    (27): C2f(\n      (cv1): Conv(\n        (conv):\
  \ Conv2d(192, 128, kernel_size=(1, 1), stride=(1, 1), bias=False)\n        (bn):\
  \ BatchNorm2d(128, eps=0.001, momentum=0.03, affine=True, track_running_stats=True)\n\
  \        (act): SiLU(inplace=True)\n      )\n      (cv2): Conv(\n        (conv):\
  \ Conv2d(192, 128, kernel_size=(1, 1), stride=(1, 1), bias=False)\n        (bn):\
  \ BatchNorm2d(128, eps=0.001, momentum=0.03, affine=True, track_running_stats=True)\n\
  \        (act): SiLU(inplace=True)\n      )\n      (m): ModuleList(\n        (0):\
  \ Bottleneck(\n          (cv1): Conv(\n            (conv): Conv2d(64, 64, kernel_size=(3,\
  \ 3), stride=(1, 1), padding=(1, 1), bias=False)\n            (bn): BatchNorm2d(64,\
  \ eps=0.001, momentum=0.03, affine=True, track_running_stats=True)\n           \
  \ (act): SiLU(inplace=True)\n          )\n          (cv2): Conv(\n            (conv):\
  \ Conv2d(64, 64, kernel_size=(3, 3), stride=(1, 1), padding=(1, 1), bias=False)\n\
  \            (bn): BatchNorm2d(64, eps=0.001, momentum=0.03, affine=True, track_running_stats=True)\n\
  \            (act): SiLU(inplace=True)\n          )\n        )\n      )\n    )\n\
  \    (28): Conv(\n      (conv): Conv2d(128, 128, kernel_size=(3, 3), stride=(2,\
  \ 2), padding=(1, 1), bias=False)\n      (bn): BatchNorm2d(128, eps=0.001, momentum=0.03,\
  \ affine=True, track_running_stats=True)\n      (act): SiLU(inplace=True)\n    )\n\
  \    (29): Concat()\n    (30): C2f(\n      (cv1): Conv(\n        (conv): Conv2d(384,\
  \ 256, kernel_size=(1, 1), stride=(1, 1), bias=False)\n        (bn): BatchNorm2d(256,\
  \ eps=0.001, momentum=0.03, affine=True, track_running_stats=True)\n        (act):\
  \ SiLU(inplace=True)\n      )\n      (cv2): Conv(\n        (conv): Conv2d(384, 256,\
  \ kernel_size=(1, 1), stride=(1, 1), bias=False)\n        (bn): BatchNorm2d(256,\
  \ eps=0.001, momentum=0.03, affine=True, track_running_stats=True)\n        (act):\
  \ SiLU(inplace=True)\n      )\n      (m): ModuleList(\n        (0): Bottleneck(\n\
  \          (cv1): Conv(\n            (conv): Conv2d(128, 128, kernel_size=(3, 3),\
  \ stride=(1, 1), padding=(1, 1), bias=False)\n            (bn): BatchNorm2d(128,\
  \ eps=0.001, momentum=0.03, affine=True, track_running_stats=True)\n           \
  \ (act): SiLU(inplace=True)\n          )\n          (cv2): Conv(\n            (conv):\
  \ Conv2d(128, 128, kernel_size=(3, 3), stride=(1, 1), padding=(1, 1), bias=False)\n\
  \            (bn): BatchNorm2d(128, eps=0.001, momentum=0.03, affine=True, track_running_stats=True)\n\
  \            (act): SiLU(inplace=True)\n          )\n        )\n      )\n    )\n\
  \    (31): Upsample(scale_factor=2.0, mode='nearest')\n    (32): Concat()\n    (33):\
  \ C2f(\n      (cv1): Conv(\n        (conv): Conv2d(384, 128, kernel_size=(1, 1),\
  \ stride=(1, 1), bias=False)\n        (bn): BatchNorm2d(128, eps=0.001, momentum=0.03,\
  \ affine=True, track_running_stats=True)\n        (act): SiLU(inplace=True)\n  \
  \    )\n      (cv2): Conv(\n        (conv): Conv2d(192, 128, kernel_size=(1, 1),\
  \ stride=(1, 1), bias=False)\n        (bn): BatchNorm2d(128, eps=0.001, momentum=0.03,\
  \ affine=True, track_running_stats=True)\n        (act): SiLU(inplace=True)\n  \
  \    )\n      (m): ModuleList(\n        (0): Bottleneck(\n          (cv1): Conv(\n\
  \            (conv): Conv2d(64, 64, kernel_size=(3, 3), stride=(1, 1), padding=(1,\
  \ 1), bias=False)\n            (bn): BatchNorm2d(64, eps=0.001, momentum=0.03, affine=True,\
  \ track_running_stats=True)\n            (act): SiLU(inplace=True)\n          )\n\
  \          (cv2): Conv(\n            (conv): Conv2d(64, 64, kernel_size=(3, 3),\
  \ stride=(1, 1), padding=(1, 1), bias=False)\n            (bn): BatchNorm2d(64,\
  \ eps=0.001, momentum=0.03, affine=True, track_running_stats=True)\n           \
  \ (act): SiLU(inplace=True)\n          )\n        )\n      )\n    )\n    (34): Upsample(scale_factor=2.0,\
  \ mode='nearest')\n    (35): Concat()\n    (36): C2f(\n      (cv1): Conv(\n    \
  \    (conv): Conv2d(192, 64, kernel_size=(1, 1), stride=(1, 1), bias=False)\n  \
  \      (bn): BatchNorm2d(64, eps=0.001, momentum=0.03, affine=True, track_running_stats=True)\n\
  \        (act): SiLU(inplace=True)\n      )\n      (cv2): Conv(\n        (conv):\
  \ Conv2d(96, 64, kernel_size=(1, 1), stride=(1, 1), bias=False)\n        (bn): BatchNorm2d(64,\
  \ eps=0.001, momentum=0.03, affine=True, track_running_stats=True)\n        (act):\
  \ SiLU(inplace=True)\n      )\n      (m): ModuleList(\n        (0): Bottleneck(\n\
  \          (cv1): Conv(\n            (conv): Conv2d(32, 32, kernel_size=(3, 3),\
  \ stride=(1, 1), padding=(1, 1), bias=False)\n            (bn): BatchNorm2d(32,\
  \ eps=0.001, momentum=0.03, affine=True, track_running_stats=True)\n           \
  \ (act): SiLU(inplace=True)\n          )\n          (cv2): Conv(\n            (conv):\
  \ Conv2d(32, 32, kernel_size=(3, 3), stride=(1, 1), padding=(1, 1), bias=False)\n\
  \            (bn): BatchNorm2d(32, eps=0.001, momentum=0.03, affine=True, track_running_stats=True)\n\
  \            (act): SiLU(inplace=True)\n          )\n        )\n      )\n    )\n\
  \    (37): Conv(\n      (conv): Conv2d(64, 64, kernel_size=(3, 3), stride=(2, 2),\
  \ padding=(1, 1), bias=False)\n      (bn): BatchNorm2d(64, eps=0.001, momentum=0.03,\
  \ affine=True, track_running_stats=True)\n      (act): SiLU(inplace=True)\n    )\n\
  \    (38): Concat()\n    (39): C2f(\n      (cv1): Conv(\n        (conv): Conv2d(192,\
  \ 128, kernel_size=(1, 1), stride=(1, 1), bias=False)\n        (bn): BatchNorm2d(128,\
  \ eps=0.001, momentum=0.03, affine=True, track_running_stats=True)\n        (act):\
  \ SiLU(inplace=True)\n      )\n      (cv2): Conv(\n        (conv): Conv2d(192, 128,\
  \ kernel_size=(1, 1), stride=(1, 1), bias=False)\n        (bn): BatchNorm2d(128,\
  \ eps=0.001, momentum=0.03, affine=True, track_running_stats=True)\n        (act):\
  \ SiLU(inplace=True)\n      )\n      (m): ModuleList(\n        (0): Bottleneck(\n\
  \          (cv1): Conv(\n            (conv): Conv2d(64, 64, kernel_size=(3, 3),\
  \ stride=(1, 1), padding=(1, 1), bias=False)\n            (bn): BatchNorm2d(64,\
  \ eps=0.001, momentum=0.03, affine=True, track_running_stats=True)\n           \
  \ (act): SiLU(inplace=True)\n          )\n          (cv2): Conv(\n            (conv):\
  \ Conv2d(64, 64, kernel_size=(3, 3), stride=(1, 1), padding=(1, 1), bias=False)\n\
  \            (bn): BatchNorm2d(64, eps=0.001, momentum=0.03, affine=True, track_running_stats=True)\n\
  \            (act): SiLU(inplace=True)\n          )\n        )\n      )\n    )\n\
  \    (40): Conv(\n      (conv): Conv2d(128, 128, kernel_size=(3, 3), stride=(2,\
  \ 2), padding=(1, 1), bias=False)\n      (bn): BatchNorm2d(128, eps=0.001, momentum=0.03,\
  \ affine=True, track_running_stats=True)\n      (act): SiLU(inplace=True)\n    )\n\
  \    (41): Concat()\n    (42): C2f(\n      (cv1): Conv(\n        (conv): Conv2d(384,\
  \ 256, kernel_size=(1, 1), stride=(1, 1), bias=False)\n        (bn): BatchNorm2d(256,\
  \ eps=0.001, momentum=0.03, affine=True, track_running_stats=True)\n        (act):\
  \ SiLU(inplace=True)\n      )\n      (cv2): Conv(\n        (conv): Conv2d(384, 256,\
  \ kernel_size=(1, 1), stride=(1, 1), bias=False)\n        (bn): BatchNorm2d(256,\
  \ eps=0.001, momentum=0.03, affine=True, track_running_stats=True)\n        (act):\
  \ SiLU(inplace=True)\n      )\n      (m): ModuleList(\n        (0): Bottleneck(\n\
  \          (cv1): Conv(\n            (conv): Conv2d(128, 128, kernel_size=(3, 3),\
  \ stride=(1, 1), padding=(1, 1), bias=False)\n            (bn): BatchNorm2d(128,\
  \ eps=0.001, momentum=0.03, affine=True, track_running_stats=True)\n           \
  \ (act): SiLU(inplace=True)\n          )\n          (cv2): Conv(\n            (conv):\
  \ Conv2d(128, 128, kernel_size=(3, 3), stride=(1, 1), padding=(1, 1), bias=False)\n\
  \            (bn): BatchNorm2d(128, eps=0.001, momentum=0.03, affine=True, track_running_stats=True)\n\
  \            (act): SiLU(inplace=True)\n          )\n        )\n      )\n    )\n\
  \    (43): Upsample(scale_factor=2.0, mode='nearest')\n    (44): Concat()\n    (45):\
  \ C2f(\n      (cv1): Conv(\n        (conv): Conv2d(384, 128, kernel_size=(1, 1),\
  \ stride=(1, 1), bias=False)\n        (bn): BatchNorm2d(128, eps=0.001, momentum=0.03,\
  \ affine=True, track_running_stats=True)\n        (act): SiLU(inplace=True)\n  \
  \    )\n      (cv2): Conv(\n        (conv): Conv2d(192, 128, kernel_size=(1, 1),\
  \ stride=(1, 1), bias=False)\n        (bn): BatchNorm2d(128, eps=0.001, momentum=0.03,\
  \ affine=True, track_running_stats=True)\n        (act): SiLU(inplace=True)\n  \
  \    )\n      (m): ModuleList(\n        (0): Bottleneck(\n          (cv1): Conv(\n\
  \            (conv): Conv2d(64, 64, kernel_size=(3, 3), stride=(1, 1), padding=(1,\
  \ 1), bias=False)\n            (bn): BatchNorm2d(64, eps=0.001, momentum=0.03, affine=True,\
  \ track_running_stats=True)\n            (act): SiLU(inplace=True)\n          )\n\
  \          (cv2): Conv(\n            (conv): Conv2d(64, 64, kernel_size=(3, 3),\
  \ stride=(1, 1), padding=(1, 1), bias=False)\n            (bn): BatchNorm2d(64,\
  \ eps=0.001, momentum=0.03, affine=True, track_running_stats=True)\n           \
  \ (act): SiLU(inplace=True)\n          )\n        )\n      )\n    )\n    (46): Upsample(scale_factor=2.0,\
  \ mode='nearest')\n    (47): Concat()\n    (48): C2f(\n      (cv1): Conv(\n    \
  \    (conv): Conv2d(192, 64, kernel_size=(1, 1), stride=(1, 1), bias=False)\n  \
  \      (bn): BatchNorm2d(64, eps=0.001, momentum=0.03, affine=True, track_running_stats=True)\n\
  \        (act): SiLU(inplace=True)\n      )\n      (cv2): Conv(\n        (conv):\
  \ Conv2d(96, 64, kernel_size=(1, 1), stride=(1, 1), bias=False)\n        (bn): BatchNorm2d(64,\
  \ eps=0.001, momentum=0.03, affine=True, track_running_stats=True)\n        (act):\
  \ SiLU(inplace=True)\n      )\n      (m): ModuleList(\n        (0): Bottleneck(\n\
  \          (cv1): Conv(\n            (conv): Conv2d(32, 32, kernel_size=(3, 3),\
  \ stride=(1, 1), padding=(1, 1), bias=False)\n            (bn): BatchNorm2d(32,\
  \ eps=0.001, momentum=0.03, affine=True, track_running_stats=True)\n           \
  \ (act): SiLU(inplace=True)\n          )\n          (cv2): Conv(\n            (conv):\
  \ Conv2d(32, 32, kernel_size=(3, 3), stride=(1, 1), padding=(1, 1), bias=False)\n\
  \            (bn): BatchNorm2d(32, eps=0.001, momentum=0.03, affine=True, track_running_stats=True)\n\
  \            (act): SiLU(inplace=True)\n          )\n        )\n      )\n    )\n\
  \    (49): Conv(\n      (conv): Conv2d(64, 64, kernel_size=(3, 3), stride=(2, 2),\
  \ padding=(1, 1), bias=False)\n      (bn): BatchNorm2d(64, eps=0.001, momentum=0.03,\
  \ affine=True, track_running_stats=True)\n      (act): SiLU(inplace=True)\n    )\n\
  \    (50): Concat()\n    (51): C2f(\n      (cv1): Conv(\n        (conv): Conv2d(192,\
  \ 128, kernel_size=(1, 1), stride=(1, 1), bias=False)\n        (bn): BatchNorm2d(128,\
  \ eps=0.001, momentum=0.03, affine=True, track_running_stats=True)\n        (act):\
  \ SiLU(inplace=True)\n      )\n      (cv2): Conv(\n        (conv): Conv2d(192, 128,\
  \ kernel_size=(1, 1), stride=(1, 1), bias=False)\n        (bn): BatchNorm2d(128,\
  \ eps=0.001, momentum=0.03, affine=True, track_running_stats=True)\n        (act):\
  \ SiLU(inplace=True)\n      )\n      (m): ModuleList(\n        (0): Bottleneck(\n\
  \          (cv1): Conv(\n            (conv): Conv2d(64, 64, kernel_size=(3, 3),\
  \ stride=(1, 1), padding=(1, 1), bias=False)\n            (bn): BatchNorm2d(64,\
  \ eps=0.001, momentum=0.03, affine=True, track_running_stats=True)\n           \
  \ (act): SiLU(inplace=True)\n          )\n          (cv2): Conv(\n            (conv):\
  \ Conv2d(64, 64, kernel_size=(3, 3), stride=(1, 1), padding=(1, 1), bias=False)\n\
  \            (bn): BatchNorm2d(64, eps=0.001, momentum=0.03, affine=True, track_running_stats=True)\n\
  \            (act): SiLU(inplace=True)\n          )\n        )\n      )\n    )\n\
  \    (52): Conv(\n      (conv): Conv2d(128, 128, kernel_size=(3, 3), stride=(2,\
  \ 2), padding=(1, 1), bias=False)\n      (bn): BatchNorm2d(128, eps=0.001, momentum=0.03,\
  \ affine=True, track_running_stats=True)\n      (act): SiLU(inplace=True)\n    )\n\
  \    (53): Concat()\n    (54): C2f(\n      (cv1): Conv(\n        (conv): Conv2d(384,\
  \ 256, kernel_size=(1, 1), stride=(1, 1), bias=False)\n        (bn): BatchNorm2d(256,\
  \ eps=0.001, momentum=0.03, affine=True, track_running_stats=True)\n        (act):\
  \ SiLU(inplace=True)\n      )\n      (cv2): Conv(\n        (conv): Conv2d(384, 256,\
  \ kernel_size=(1, 1), stride=(1, 1), bias=False)\n        (bn): BatchNorm2d(256,\
  \ eps=0.001, momentum=0.03, affine=True, track_running_stats=True)\n        (act):\
  \ SiLU(inplace=True)\n      )\n      (m): ModuleList(\n        (0): Bottleneck(\n\
  \          (cv1): Conv(\n            (conv): Conv2d(128, 128, kernel_size=(3, 3),\
  \ stride=(1, 1), padding=(1, 1), bias=False)\n            (bn): BatchNorm2d(128,\
  \ eps=0.001, momentum=0.03, affine=True, track_running_stats=True)\n           \
  \ (act): SiLU(inplace=True)\n          )\n          (cv2): Conv(\n            (conv):\
  \ Conv2d(128, 128, kernel_size=(3, 3), stride=(1, 1), padding=(1, 1), bias=False)\n\
  \            (bn): BatchNorm2d(128, eps=0.001, momentum=0.03, affine=True, track_running_stats=True)\n\
  \            (act): SiLU(inplace=True)\n          )\n        )\n      )\n    )\n\
  \    (55): Detect(\n      (cv2): ModuleList(\n        (0): Sequential(\n       \
  \   (0): Conv(\n            (conv): Conv2d(64, 64, kernel_size=(3, 3), stride=(1,\
  \ 1), padding=(1, 1), bias=False)\n            (bn): BatchNorm2d(64, eps=0.001,\
  \ momentum=0.03, affine=True, track_running_stats=True)\n            (act): SiLU(inplace=True)\n\
  \          )\n          (1): Conv(\n            (conv): Conv2d(64, 64, kernel_size=(3,\
  \ 3), stride=(1, 1), padding=(1, 1), bias=False)\n            (bn): BatchNorm2d(64,\
  \ eps=0.001, momentum=0.03, affine=True, track_running_stats=True)\n           \
  \ (act): SiLU(inplace=True)\n          )\n          (2): Conv2d(64, 64, kernel_size=(1,\
  \ 1), stride=(1, 1))\n        )\n        (1): Sequential(\n          (0): Conv(\n\
  \            (conv): Conv2d(128, 64, kernel_size=(3, 3), stride=(1, 1), padding=(1,\
  \ 1), bias=False)\n            (bn): BatchNorm2d(64, eps=0.001, momentum=0.03, affine=True,\
  \ track_running_stats=True)\n            (act): SiLU(inplace=True)\n          )\n\
  \          (1): Conv(\n            (conv): Conv2d(64, 64, kernel_size=(3, 3), stride=(1,\
  \ 1), padding=(1, 1), bias=False)\n            (bn): BatchNorm2d(64, eps=0.001,\
  \ momentum=0.03, affine=True, track_running_stats=True)\n            (act): SiLU(inplace=True)\n\
  \          )\n          (2): Conv2d(64, 64, kernel_size=(1, 1), stride=(1, 1))\n\
  \        )\n        (2): Sequential(\n          (0): Conv(\n            (conv):\
  \ Conv2d(256, 64, kernel_size=(3, 3), stride=(1, 1), padding=(1, 1), bias=False)\n\
  \            (bn): BatchNorm2d(64, eps=0.001, momentum=0.03, affine=True, track_running_stats=True)\n\
  \            (act): SiLU(inplace=True)\n          )\n          (1): Conv(\n    \
  \        (conv): Conv2d(64, 64, kernel_size=(3, 3), stride=(1, 1), padding=(1, 1),\
  \ bias=False)\n            (bn): BatchNorm2d(64, eps=0.001, momentum=0.03, affine=True,\
  \ track_running_stats=True)\n            (act): SiLU(inplace=True)\n          )\n\
  \          (2): Conv2d(64, 64, kernel_size=(1, 1), stride=(1, 1))\n        )\n \
  \     )\n      (cv3): ModuleList(\n        (0): Sequential(\n          (0): Conv(\n\
  \            (conv): Conv2d(64, 64, kernel_size=(3, 3), stride=(1, 1), padding=(1,\
  \ 1), bias=False)\n            (bn): BatchNorm2d(64, eps=0.001, momentum=0.03, affine=True,\
  \ track_running_stats=True)\n            (act): SiLU(inplace=True)\n          )\n\
  \          (1): Conv(\n            (conv): Conv2d(64, 64, kernel_size=(3, 3), stride=(1,\
  \ 1), padding=(1, 1), bias=False)\n            (bn): BatchNorm2d(64, eps=0.001,\
  \ momentum=0.03, affine=True, track_running_stats=True)\n            (act): SiLU(inplace=True)\n\
  \          )\n          (2): Conv2d(64, 5, kernel_size=(1, 1), stride=(1, 1))\n\
  \        )\n        (1): Sequential(\n          (0): Conv(\n            (conv):\
  \ Conv2d(128, 64, kernel_size=(3, 3), stride=(1, 1), padding=(1, 1), bias=False)\n\
  \            (bn): BatchNorm2d(64, eps=0.001, momentum=0.03, affine=True, track_running_stats=True)\n\
  \            (act): SiLU(inplace=True)\n          )\n          (1): Conv(\n    \
  \        (conv): Conv2d(64, 64, kernel_size=(3, 3), stride=(1, 1), padding=(1, 1),\
  \ bias=False)\n            (bn): BatchNorm2d(64, eps=0.001, momentum=0.03, affine=True,\
  \ track_running_stats=True)\n            (act): SiLU(inplace=True)\n          )\n\
  \          (2): Conv2d(64, 5, kernel_size=(1, 1), stride=(1, 1))\n        )\n  \
  \      (2): Sequential(\n          (0): Conv(\n            (conv): Conv2d(256, 64,\
  \ kernel_size=(3, 3), stride=(1, 1), padding=(1, 1), bias=False)\n            (bn):\
  \ BatchNorm2d(64, eps=0.001, momentum=0.03, affine=True, track_running_stats=True)\n\
  \            (act): SiLU(inplace=True)\n          )\n          (1): Conv(\n    \
  \        (conv): Conv2d(64, 64, kernel_size=(3, 3), stride=(1, 1), padding=(1, 1),\
  \ bias=False)\n            (bn): BatchNorm2d(64, eps=0.001, momentum=0.03, affine=True,\
  \ track_running_stats=True)\n            (act): SiLU(inplace=True)\n          )\n\
  \          (2): Conv2d(64, 5, kernel_size=(1, 1), stride=(1, 1))\n        )\n  \
  \    )\n      (dfl): DFL(\n        (conv): Conv2d(16, 1, kernel_size=(1, 1), stride=(1,\
  \ 1), bias=False)\n      )\n    )\n    (56): Detect(\n      (cv2): ModuleList(\n\
  \        (0): Sequential(\n          (0): Conv(\n            (conv): Conv2d(64,\
  \ 64, kernel_size=(3, 3), stride=(1, 1), padding=(1, 1), bias=False)\n         \
  \   (bn): BatchNorm2d(64, eps=0.001, momentum=0.03, affine=True, track_running_stats=True)\n\
  \            (act): SiLU(inplace=True)\n          )\n          (1): Conv(\n    \
  \        (conv): Conv2d(64, 64, kernel_size=(3, 3), stride=(1, 1), padding=(1, 1),\
  \ bias=False)\n            (bn): BatchNorm2d(64, eps=0.001, momentum=0.03, affine=True,\
  \ track_running_stats=True)\n            (act): SiLU(inplace=True)\n          )\n\
  \          (2): Conv2d(64, 64, kernel_size=(1, 1), stride=(1, 1))\n        )\n \
  \       (1): Sequential(\n          (0): Conv(\n            (conv): Conv2d(128,\
  \ 64, kernel_size=(3, 3), stride=(1, 1), padding=(1, 1), bias=False)\n         \
  \   (bn): BatchNorm2d(64, eps=0.001, momentum=0.03, affine=True, track_running_stats=True)\n\
  \            (act): SiLU(inplace=True)\n          )\n          (1): Conv(\n    \
  \        (conv): Conv2d(64, 64, kernel_size=(3, 3), stride=(1, 1), padding=(1, 1),\
  \ bias=False)\n            (bn): BatchNorm2d(64, eps=0.001, momentum=0.03, affine=True,\
  \ track_running_stats=True)\n            (act): SiLU(inplace=True)\n          )\n\
  \          (2): Conv2d(64, 64, kernel_size=(1, 1), stride=(1, 1))\n        )\n \
  \       (2): Sequential(\n          (0): Conv(\n            (conv): Conv2d(256,\
  \ 64, kernel_size=(3, 3), stride=(1, 1), padding=(1, 1), bias=False)\n         \
  \   (bn): BatchNorm2d(64, eps=0.001, momentum=0.03, affine=True, track_running_stats=True)\n\
  \            (act): SiLU(inplace=True)\n          )\n          (1): Conv(\n    \
  \        (conv): Conv2d(64, 64, kernel_size=(3, 3), stride=(1, 1), padding=(1, 1),\
  \ bias=False)\n            (bn): BatchNorm2d(64, eps=0.001, momentum=0.03, affine=True,\
  \ track_running_stats=True)\n            (act): SiLU(inplace=True)\n          )\n\
  \          (2): Conv2d(64, 64, kernel_size=(1, 1), stride=(1, 1))\n        )\n \
  \     )\n      (cv3): ModuleList(\n        (0): Sequential(\n          (0): Conv(\n\
  \            (conv): Conv2d(64, 64, kernel_size=(3, 3), stride=(1, 1), padding=(1,\
  \ 1), bias=False)\n            (bn): BatchNorm2d(64, eps=0.001, momentum=0.03, affine=True,\
  \ track_running_stats=True)\n            (act): SiLU(inplace=True)\n          )\n\
  \          (1): Conv(\n            (conv): Conv2d(64, 64, kernel_size=(3, 3), stride=(1,\
  \ 1), padding=(1, 1), bias=False)\n            (bn): BatchNorm2d(64, eps=0.001,\
  \ momentum=0.03, affine=True, track_running_stats=True)\n            (act): SiLU(inplace=True)\n\
  \          )\n          (2): Conv2d(64, 5, kernel_size=(1, 1), stride=(1, 1))\n\
  \        )\n        (1): Sequential(\n          (0): Conv(\n            (conv):\
  \ Conv2d(128, 64, kernel_size=(3, 3), stride=(1, 1), padding=(1, 1), bias=False)\n\
  \            (bn): BatchNorm2d(64, eps=0.001, momentum=0.03, affine=True, track_running_stats=True)\n\
  \            (act): SiLU(inplace=True)\n          )\n          (1): Conv(\n    \
  \        (conv): Conv2d(64, 64, kernel_size=(3, 3), stride=(1, 1), padding=(1, 1),\
  \ bias=False)\n            (bn): BatchNorm2d(64, eps=0.001, momentum=0.03, affine=True,\
  \ track_running_stats=True)\n            (act): SiLU(inplace=True)\n          )\n\
  \          (2): Conv2d(64, 5, kernel_size=(1, 1), stride=(1, 1))\n        )\n  \
  \      (2): Sequential(\n          (0): Conv(\n            (conv): Conv2d(256, 64,\
  \ kernel_size=(3, 3), stride=(1, 1), padding=(1, 1), bias=False)\n            (bn):\
  \ BatchNorm2d(64, eps=0.001, momentum=0.03, affine=True, track_running_stats=True)\n\
  \            (act): SiLU(inplace=True)\n          )\n          (1): Conv(\n    \
  \        (conv): Conv2d(64, 64, kernel_size=(3, 3), stride=(1, 1), padding=(1, 1),\
  \ bias=False)\n            (bn): BatchNorm2d(64, eps=0.001, momentum=0.03, affine=True,\
  \ track_running_stats=True)\n            (act): SiLU(inplace=True)\n          )\n\
  \          (2): Conv2d(64, 5, kernel_size=(1, 1), stride=(1, 1))\n        )\n  \
  \    )\n      (dfl): DFL(\n        (conv): Conv2d(16, 1, kernel_size=(1, 1), stride=(1,\
  \ 1), bias=False)\n      )\n    )\n    (57): Detect(\n      (cv2): ModuleList(\n\
  \        (0): Sequential(\n          (0): Conv(\n            (conv): Conv2d(64,\
  \ 64, kernel_size=(3, 3), stride=(1, 1), padding=(1, 1), bias=False)\n         \
  \   (bn): BatchNorm2d(64, eps=0.001, momentum=0.03, affine=True, track_running_stats=True)\n\
  \            (act): SiLU(inplace=True)\n          )\n          (1): Conv(\n    \
  \        (conv): Conv2d(64, 64, kernel_size=(3, 3), stride=(1, 1), padding=(1, 1),\
  \ bias=False)\n            (bn): BatchNorm2d(64, eps=0.001, momentum=0.03, affine=True,\
  \ track_running_stats=True)\n            (act): SiLU(inplace=True)\n          )\n\
  \          (2): Conv2d(64, 64, kernel_size=(1, 1), stride=(1, 1))\n        )\n \
  \       (1): Sequential(\n          (0): Conv(\n            (conv): Conv2d(128,\
  \ 64, kernel_size=(3, 3), stride=(1, 1), padding=(1, 1), bias=False)\n         \
  \   (bn): BatchNorm2d(64, eps=0.001, momentum=0.03, affine=True, track_running_stats=True)\n\
  \            (act): SiLU(inplace=True)\n          )\n          (1): Conv(\n    \
  \        (conv): Conv2d(64, 64, kernel_size=(3, 3), stride=(1, 1), padding=(1, 1),\
  \ bias=False)\n            (bn): BatchNorm2d(64, eps=0.001, momentum=0.03, affine=True,\
  \ track_running_stats=True)\n            (act): SiLU(inplace=True)\n          )\n\
  \          (2): Conv2d(64, 64, kernel_size=(1, 1), stride=(1, 1))\n        )\n \
  \       (2): Sequential(\n          (0): Conv(\n            (conv): Conv2d(256,\
  \ 64, kernel_size=(3, 3), stride=(1, 1), padding=(1, 1), bias=False)\n         \
  \   (bn): BatchNorm2d(64, eps=0.001, momentum=0.03, affine=True, track_running_stats=True)\n\
  \            (act): SiLU(inplace=True)\n          )\n          (1): Conv(\n    \
  \        (conv): Conv2d(64, 64, kernel_size=(3, 3), stride=(1, 1), padding=(1, 1),\
  \ bias=False)\n            (bn): BatchNorm2d(64, eps=0.001, momentum=0.03, affine=True,\
  \ track_running_stats=True)\n            (act): SiLU(inplace=True)\n          )\n\
  \          (2): Conv2d(64, 64, kernel_size=(1, 1), stride=(1, 1))\n        )\n \
  \     )\n      (cv3): ModuleList(\n        (0): Sequential(\n          (0): Conv(\n\
  \            (conv): Conv2d(64, 64, kernel_size=(3, 3), stride=(1, 1), padding=(1,\
  \ 1), bias=False)\n            (bn): BatchNorm2d(64, eps=0.001, momentum=0.03, affine=True,\
  \ track_running_stats=True)\n            (act): SiLU(inplace=True)\n          )\n\
  \          (1): Conv(\n            (conv): Conv2d(64, 64, kernel_size=(3, 3), stride=(1,\
  \ 1), padding=(1, 1), bias=False)\n            (bn): BatchNorm2d(64, eps=0.001,\
  \ momentum=0.03, affine=True, track_running_stats=True)\n            (act): SiLU(inplace=True)\n\
  \          )\n          (2): Conv2d(64, 5, kernel_size=(1, 1), stride=(1, 1))\n\
  \        )\n        (1): Sequential(\n          (0): Conv(\n            (conv):\
  \ Conv2d(128, 64, kernel_size=(3, 3), stride=(1, 1), padding=(1, 1), bias=False)\n\
  \            (bn): BatchNorm2d(64, eps=0.001, momentum=0.03, affine=True, track_running_stats=True)\n\
  \            (act): SiLU(inplace=True)\n          )\n          (1): Conv(\n    \
  \        (conv): Conv2d(64, 64, kernel_size=(3, 3), stride=(1, 1), padding=(1, 1),\
  \ bias=False)\n            (bn): BatchNorm2d(64, eps=0.001, momentum=0.03, affine=True,\
  \ track_running_stats=True)\n            (act): SiLU(inplace=True)\n          )\n\
  \          (2): Conv2d(64, 5, kernel_size=(1, 1), stride=(1, 1))\n        )\n  \
  \      (2): Sequential(\n          (0): Conv(\n            (conv): Conv2d(256, 64,\
  \ kernel_size=(3, 3), stride=(1, 1), padding=(1, 1), bias=False)\n            (bn):\
  \ BatchNorm2d(64, eps=0.001, momentum=0.03, affine=True, track_running_stats=True)\n\
  \            (act): SiLU(inplace=True)\n          )\n          (1): Conv(\n    \
  \        (conv): Conv2d(64, 64, kernel_size=(3, 3), stride=(1, 1), padding=(1, 1),\
  \ bias=False)\n            (bn): BatchNorm2d(64, eps=0.001, momentum=0.03, affine=True,\
  \ track_running_stats=True)\n            (act): SiLU(inplace=True)\n          )\n\
  \          (2): Conv2d(64, 5, kernel_size=(1, 1), stride=(1, 1))\n        )\n  \
  \    )\n      (dfl): DFL(\n        (conv): Conv2d(16, 1, kernel_size=(1, 1), stride=(1,\
  \ 1), bias=False)\n      )\n    )\n  )\n)"
distillation_loss: cwd
distill_layers:
- 6
- 8
- 21
val: true
split: val
save_json: false
save_hybrid: false
conf: null
iou: 0.7
max_det: 300
half: false
dnn: false
plots: true
source: null
vid_stride: 1
stream_buffer: false
visualize: false
augment: false
agnostic_nms: false
classes: null
retina_masks: false
embed: null
…
